…
    - The "*fit*" and "*evaluate*" commands are used to train and test the model,
    respectively.


    The following inferences can be made from Fig. 11.60:


    +   - The functional model contains a flatten layer and three dense layers, in
    which two are hidden layers and the final one is an output layer.

    - The test accuracy is obtained as 97.6%, and the test loss is 9%.'
  - '[PAGE 807]


    ```

    Test accuracy: 0.9764000177383423

    Test Loss: 0.0987013652920723

    Model Summary:

    Model: "functional_1"


    | Layer (type) | Output Shape | Param # |

    | --- | --- | --- |

    | input_layer (InputLayer) | (None, 28, 28) | 0 |

    | flatten (Flatten) | (None, 784) | 0 |

    | dense (Dense) | (None, 128) | 100,480 |

    | dense_1 (Dense) | (None, 64) | 8,256 |

    | dense_2 (Dense) | (None, 10) | 650 |


    Total params: 328,160 (1.25 MB)

    Trainable params: 109,386 (427.29 KB)

    Non-trainable params: 0 (0.00 B)

    Optimizer params: 218,774 (854.59 KB)

    ```


    **Fig. 11.60** Simulation result


    +   - From the summary of the model, it is possible to observe that the size of
    the output of each layer and the number of parameters in each layer was also obtained.


    # 11.6.2 Convolutional Neural Network
…
    command is used to test the model and obtain performance metrics of the created
    model.


    +   - From Fig. 11.63, it is possible to observe that the summary of the created
    model is displayed, and test accuracy and test loss are also seen from it.


    **Task**: Vary the values of batch_size and epochs in the Python code given in
    Fig. 11.62 and comment on the test accuracy and test loss results.'
  - '[PAGE 811]


    ```

    Test accuracy: 0.7777000069618225

    Test Loss: 0.6984601616859436

    Model Summary:

    Model: "sequential"


    | Layer (type) | Output Shape | Param # |

    | --- | --- | --- |

    | conv2d (Conv2D) | (None, 32, 32, 32) | 896 |

    | conv2d_1 (Conv2D) | (None, 30, 30, 32) | 9,248 |

    | max_pooling2d (MaxPooling2D) | (None, 15, 15, 32) | 0 |

    | dropout (Dropout) | (None, 15, 15, 32) | 0 |

    | conv2d_2 (Conv2D) | (None, 15, 15, 64) | 18,496 |

    | conv2d_3 (Conv2D) | (None, 13, 13, 64) | 36,928 |

    | max_pooling2d_1 (MaxPooling2D) | (None, 6, 6, 64) | 0 |

    | dropout_1 (Dropout) | (None, 6, 6, 64) | 0 |

    | conv2d_4 (Conv2D) | (None, 6, 6, 64) | 36,928 |

    | conv2d_5 (Conv2D) | (None, 4, 4, 64) | 36,928 |

    | max_pooling2d_2 (MaxPooling2D) | (None, 2, 2, 64) | 0 |

    | dropout_2 (Dropout) | (None, 2, 2, 64) | 0 |

    | flatten (Flatten) | (None, 256) | 0 |

    | dense (Dense) | (None, 512) | 131,584 |

    | dropout_3 (Dropout) | (None, 512) | 0 |

    | dense_1 (Dense) | (None, 10) | 5,130 |


    Total params: 552,278 (2.11 MB)

    Trainable params: 276,138 (1.05 MB)

    Non-trainable params: 0 (0.00 B)

    Optimizer params: 276,140 (1.05 MB)

    ```


    Fig. 11.63 Simulation result of CNN model


    # 11.6.3 AlexNet


    AlexNet was first proposed by Alex Krizhevsky, Ilya Sutskever, and Geoffrey Hinton
    in the 2012 "ImageNet Large Scale Visual Recognition Challenge" (ILSVRC-2012).
…
    +   - The "Sequential" model is imported from the "Keras" library.

    - The following layers like "Dense", "Conv2D", "MaxPool2D", and Flatten are imported
    from the "Keras.layers" library.

    - The "ImageDataGenerator" is imported to preprocess the image data or dataset.

    - By using ".add" Python command, various layers like convolution, dense, max
    pooling and flatten can be added into the sequential model to form the VGG16 network.'
  - '[PAGE 826]


    ```

    Model: "sequential"


    | Layer (type) | Output Shape | Param # |

    | --- | --- | --- |

    | conv2d (Conv2D) | (None, 256, 256, 64) | 1,792 |

    | conv2d_1 (Conv2D) | (None, 256, 256, 64) | 36,928 |

    | max_pooling2d (MaxPooling2D) | (None, 128, 128, 64) | 0 |

    | conv2d_2 (Conv2D) | (None, 128, 128, 128) | 73,856 |

    | conv2d_3 (Conv2D) | (None, 128, 128, 128) | 147,584 |

    | max_pooling2d_1 (MaxPooling2D) | (None, 64, 64, 128) | 0 |

    | conv2d_4 (Conv2D) | (None, 64, 64, 256) | 295,168 |

    | conv2d_5 (Conv2D) | (None, 64, 64, 256) | 590,080 |

    | conv2d_6 (Conv2D) | (None, 64, 64, 256) | 590,080 |

    | max_pooling2d_2 (MaxPooling2D) | (None, 32, 32, 256) | 0 |

    | conv2d_7 (Conv2D) | (None, 32, 32, 512) | 1,180,160 |

    | conv2d_8 (Conv2D) | (None, 32, 32, 512) | 2,359,808 |

    | conv2d_9 (Conv2D) | (None, 32, 32, 512) | 2,359,808 |

    | max_pooling2d_3 (MaxPooling2D) | (None, 16, 16, 512) | 0 |

    | conv2d_10 (Conv2D) | (None, 16, 16, 512) | 2,359,808 |

    | conv2d_11 (Conv2D) | (None, 16, 16, 512) | 2,359,808 |

    | conv2d_12 (Conv2D) | (None, 16, 16, 512) | 2,359,808 |

    | max_pooling2d_4 (MaxPooling2D) | (None, 8, 8, 512) | 0 |

    | flatten (Flatten) | (None, 32768) | 0 |

    | dense (Dense) | (None, 4096) | 134,221,824 |

    | dense_1 (Dense) | (None, 4096) | 16,781,312 |

    | dense_2 (Dense) | (None, 9) | 36,873 |


    Total params: 497,264,093 (1.85 GB)

    Trainable params: 165,754,697 (632.30 MB)

    Non-trainable params: 0 (0.00 B)

    Optimizer params: 331,509,396 (1.23 GB)

    ```


    Fig. 11.74 Simulation result of VGG16 model'
  - '[PAGE 827]


    ![](img/f88e6a966edb922bd0b2ae87662c6c4b_827_0.png)


    +   - "Adams" optimizer, "categorical_crossentropy" loss, and "accuracy" performance
    metric are used to compile the VGG16 model.
…
    \ = RNN.predict(X_test)\npredicted_stock_price = scaler.inverse_transform(predicted_stock_price)\n\
    plt.plot(True_stock_price, color='green', label='True Google Stock Price')\nplt.plot(predicted_stock_price,\
    \ color='black', label='Predicted Google Stock Price')\nplt.title('Google Stock\
    \ Price Prediction'),plt.xlabel('Time')\nplt.ylabel('Google Stock Price'),plt.legend(),plt.show()\n\
    ```\n\nFig. 11.86 Python code for RNN model"
- md: ''
  mdcn: ''
  merge: -1
  raw:
  - '[PAGE 851]


    | Layer (type) | Output Shape | Param # |

    | --- | --- | --- |

    | simple_rnn (SimpleRNN) | (None, 75, 75) | 5,775 |

    | dropout (Dropout) | (None, 75, 75) | 0 |

    | simple_rnn_1 (SimpleRNN) | (None, 75, 75) | 11,325 |

    | dropout_1 (Dropout) | (None, 75, 75) | 0 |

    | simple_rnn_2 (SimpleRNN) | (None, 75, 75) | 11,325 |

    | dropout_2 (Dropout) | (None, 75, 75) | 0 |

    | simple_rnn_3 (SimpleRNN) | (None, 75) | 11,325 |

    | dropout_3 (Dropout) | (None, 75) | 0 |

    | dense (Dense) | (None, 1) | 76 |


    Total params: 119,480 (466.72 KB)

    Trainable params: 39,826 (155.57 KB)

    Non-trainable params: 0 (0.00 B)

    Optimizer params: 79,654 (311.15 KB)


    # (a) Summary of RNN model


    ![](img/f88e6a966edb922bd0b2ae87662c6c4b_851_0.png)


    # (b) True and predicted result of RNN model


    **Fig. 11.87** Simulation result of RNN model. **(a)** Summary of RNN model. **(b)**
    True and predicted result of RNN model'
…
    z[0]\"),plt.ylabel(\"z[1]\")\n    plt.imshow(figure, cmap=\"gray\"),plt.axis('off'),plt.show()\n\
    plot_latent_space(vae)\n```\n\nFig. 11.93 (continued)\n\n+   3. Read the \"Hawks\
    \ dataset\". Use the Decision tree classifier approach to classify the dataset\
    \ and display the confusion matrix.\n\n+   4. Use support vector machine learning\
    \ algorithm to classify the \"Mushrooms dataset\". Plot the confusion matrix of\
    \ the result and obtain the accuracy of the classifier."
  - '[PAGE 870]


    Model: "encoder"


    | Layer (type) | Output Shape | Param # | Connected to |

    | --- | --- | --- | --- |

    | input_layer (InputLayer) | (None, 28, 28, 1) | 0 | - |

    | conv2d (Conv2D) | (None, 14, 14, 64) | 640 | input_layer_33[0]… |

    | conv2d_1 (Conv2D) | (None, 7, 7, 128) | 73,856 | conv2d_33[0][0] |

    | flatten (Flatten) | (None, 6272) | 0 | conv2d_34[0][0] |

    | dense (Dense) | (None, 16) | 100,368 | flatten_16[0][0] |

    | mean (Dense) | (None, 2) | 34 | dense_32[0][0] |

    | log_var (Dense) | (None, 2) | 34 | dense_32[0][0] |

    | sampling (Sampling) | (None, 2) | 0 | mean[0][0], log_var[0][0] |


    Total params: 174,932 (683.33 KB)

    Trainable params: 174,932 (683.33 KB)

    Non-trainable params: 0 (0.00 B)


    Model: "decoder"


    | Layer (type) | Output Shape | Param # |

    | --- | --- | --- |

    | input_layer_1 (InputLayer) | (None, 2) | 0 |

    | dense_1 (Dense) | (None, 3136) | 9,408 |

    | reshape (Reshape) | (None, 7, 7, 64) | 0 |

    | conv2d_transpose (Conv2DTranspose) | (None, 14, 14, 128) | 73,856 |

    | conv2d_transpose_1 (Conv2DTranspose) | (None, 28, 28, 64) | 73,792 |

    | conv2d_transpose_2 (Conv2DTranspose) | (None, 28, 28, 1) | 577 |


    Total params: 157,633 (615.75 KB)

    Trainable params: 157,633 (615.75 KB)

    Non-trainable params: 0 (0.00 B)


    **Fig. 11.94** Summary of encoder and decoder of VAE


    +   5. Use "Cars dataset" to evaluate the performance of the Naïve Bayes classifier
    algorithm. Also visualize the training and test data of the "Cars dataset".

    6. Download the "glass.csv" file from the Internet source and apply this data
…
