…
    \ the activation of the filters on different levels.\n\nThe MNIST data set can\
    \ also be used to train a Convolutional Network. The associated program\n\n```\n\
    MNIST_keras_Train_1V0.py\n```\n\nis once again included in the download package.\
    \ The network topology can be specified by the instruction\n\n```\nmodel.summary()\n\
    ```\n\nand spawns the following output:\n\n```\nModel: \"sequential\"\n_________________________________________________________________\n\
    Layer (type)                Output Shape              Param #   \n=================================================================\n\
    conv2d (Conv2D)             (None, 26, 26, 32)        320       \n_________________________________________________________________\n\
    max_pooling2d (MaxPooling2D (None, 13, 13, 32)        0         \n_________________________________________________________________\n\
    conv2d_1 (Conv2D)           (None, 11, 11, 64)        18496     \n_________________________________________________________________\n\
    max_pooling2d_1 (MaxPooling2 (None, 5, 5, 64)          0         \n_________________________________________________________________\n\
    flatten (Flatten)           (None, 1600)              0         \n_________________________________________________________________\n\
    dropout (Dropout)           (None, 1600)              0         \n_________________________________________________________________\n\
    dense (Dense)               (None, 10)                16010     \n=================================================================\n\
    Total params: 34,826\nTrainable params: 34,826\nNon-trainable params: 0\n```\n\
    \nThe model printout shows that the network already consists of more than 34,000\
    \ trainable parameters. Using graphviz, a clear graphic representation can be\
    \ created (see Figure 12.6). The module (see Section 10.8 or *LINKS.txt* in the\
…
