…
    \ model with [784, 10] which do not have a *Hidden Layer*, and also try [784,\
    \ 16, 10] and [784, 32, 10] and so on to see the differences. Please note that\
    \ more nodes in *Hidden Layer* will require more time for training, for example\
    \ the model with [784, 256, 10] could take an hour or so, of course it depends\
    \ on the hardware resources and the power of the computer.\n\nHere are the results\
    \ of executing *ANNHandWrittenDigits.py* in my environments for different models:\n\
    \n| ANN Model | Approx. Execution Time | Accuracy |\n| :--- | :--- | :--- |\n\
    | [784, 10] | 2 minutes | 0.8924 |\n| [784, 16, 10] | 3 minutes | 0.8705 |\n|\
    \ [784, 32, 10] | 5 minutes | 0.8503 |\n| [784, 64, 10] | 13 minutes | 0.9376\
    \ |\n| [784, 128, 10] | 11 minutes | 0.9195 |\n| [784, 256, 10] | 56 minutes |\
    \ 0.9023 |\n\nFrom the above table, more nodes in the *Hidden Layer* do not mean\
    \ higher accuracy, but for sure require more computation resources and more time.\n\
    \nThe pre-trained model of [784, 64, 10] is saved in the Github repository under\
    \ *res* folder, the file name is *mnist_ann_784_64_10.xml*. It can be loaded by\
    \ the following code:\n\n```\n39 ann = load_model('../res/mnist_ann_784_64_10.xml')\n\
…
    \     1009\n    accuracy                           0.94     10000\n   macro avg\
    \       0.94      0.94      0.94     10000\nweighted avg       0.94      0.94\
    \      0.94     10000\n```\n\n可选地，我们可以显示带有预测值的数字图像，以及错误预测的数字，这与我们在前面章节中所做的相同。\n\
    \n你可以执行源代码并尝试使用 ANN 模型，看看 *隐藏层* 中不同的节点会产生不同的准确率。例如，尝试使用 [784, 10] 的模型，它没有 *隐藏层*，也尝试\
    \ [784, 16, 10] 和 [784, 32, 10] 等，看看差异。请注意，*隐藏层* 中更多的节点需要更多的训练时间，例如 [784, 256,\
    \ 10] 的模型可能需要一个小时左右，当然这取决于硬件资源和计算机的性能。\n\n以下是在我的环境中执行 *ANNHandWrittenDigits.py*\
    \ 得到的不同模型的结果：\n\n| ANN 模型 | 大约执行时间 | 准确率 |\n| :--- | :--- | :--- |\n| [784, 10]\
    \ | 2 分钟 | 0.8924 |\n| [784, 16, 10] | 3 分钟 | 0.8705 |\n| [784, 32, 10] | 5 分钟\
    \ | 0.8503 |\n| [784, 64, 10] | 13 分钟 | 0.9376 |\n| [784, 128, 10] | 11 分钟 | 0.9195\
    \ |\n| [784, 256, 10] | 56 分钟 | 0.9023 |\n\n从上表可以看出，*隐藏层* 中更多的节点并不意味着更高的准确率，但肯定需要更多的计算资源和更多的时间。\n\
    \n[784, 64, 10] 的预训练模型保存在 Github 仓库的 *res* 文件夹下，文件名为 *mnist_ann_784_64_10.xml*。可以通过以下代码加载：\n\
    \n```\n39 ann = load_model('../res/mnist_ann_784_64_10.xml')\n```\n\n总之，与传统的机器学习算法如\
    \ K-means、KNN 和 SVM 相比，ANN 具有许多优势，包括学习输入和输出变量之间非线性关系的能力，以及处理大型和复杂数据集的能力。ANN 还允许并行处理，这意味着可以同时处理许多信息，使其在图像处理和目标检测等任务中非常高效。\n\
    \nANN 在各个领域都有广泛的应用，包括图像识别，如目标检测、人脸识别和自动驾驶。以及许多其他领域，如金融、能源、市场预测等。\n\n然而，ANN 计算密集，需要大量的计算资源，并且需要大量的数据进行训练，收集这些数据可能成本高昂且耗时。\n\
…
    the data.'
- md: "In this example we choose `adam` as the optimizer, `categorical_crossentropy`\
    \ as the loss function and `accuracy` as the metrics. See [https://keras.io/api/optimizers/](https://keras.io/api/optimizers/)\
    \ for details.\n\nThe structure of `cnn_model` can be displayed by `summary()`\
    \ function:\n\n```\ncnn_model.summary()\n```\n\nIt's displayed like below:\n\n\
    ```\nModel: \"sequential\"\nLayer (type)                Output Shape         \
    \     Param #\n=================================================================\n\
    conv2d (Conv2D)             (None, 32, 32, 128)       3584\nmax_pooling2d (MaxPooling2D)\
    \ (None, 16, 16, 128)      0\nconv2d_1 (Conv2D)           (None, 16, 16, 64) \
    \       73792\nmax_pooling2d_1 (MaxPooling2D) (None, 8, 8, 64)       0\ndropout\
    \ (Dropout)           (None, 8, 8, 64)          0\nconv2d_2 (Conv2D)         \
    \  (None, 8, 8, 32)          18464\nmax_pooling2d_2 (MaxPooling2D) (None, 4, 4,\
    \ 32)       0\ndropout_1 (Dropout)         (None, 4, 4, 32)          0\nflatten\
    \ (Flatten)           (None, 512)                0\ndense (Dense)            \
    \   (None, 256)                131328\ndropout_2 (Dropout)         (None, 256)\
    \                0\ndense_1 (Dense)             (None, 128)                32896\n\
    dropout_3 (Dropout)         (None, 128)                0\ndense_2 (Dense)    \
    \         (None, 10)                 1290\n=================================================================\n\
    Total params: 261,354\nTrainable params: 261,354\nNon-trainable params: 0\n```\n\
    \nEach layer is shown in one line in the summary above. The first line is the\
    \ convolution layer with the name of `conv2d` and the type of `Conv2D`, where\
    \ the name is unique in the model. The output size of this layer is (32, 32, 128),\
…
  - '[PAGE 291]


    In this example we choose `adam` as the optimizer, `categorical_crossentropy`
    as the loss function and `accuracy` as the metrics. See [https://keras.io/api/optimizers/](https://keras.io/api/optimizers/)
    for details.


    The structure of `cnn_model` can be displayed by `summary()` function:


    ```

    cnn_model.summary()

    ```


    It''s displayed like below:


    ```

    Model: "sequential"

    Layer (type)                Output Shape              Param #

    =================================================================

    conv2d (Conv2D)             (None, 32, 32, 128)       3584

    max_pooling2d (MaxPooling2D) (None, 16, 16, 128)      0

    conv2d_1 (Conv2D)           (None, 16, 16, 64)        73792

    max_pooling2d_1 (MaxPooling2D) (None, 8, 8, 64)       0

    dropout (Dropout)           (None, 8, 8, 64)          0

    conv2d_2 (Conv2D)           (None, 8, 8, 32)          18464

    max_pooling2d_2 (MaxPooling2D) (None, 4, 4, 32)       0

    dropout_1 (Dropout)         (None, 4, 4, 32)          0

    flatten (Flatten)           (None, 512)                0

    dense (Dense)               (None, 256)                131328

    dropout_2 (Dropout)         (None, 256)                0

    dense_1 (Dense)             (None, 128)                32896

    dropout_3 (Dropout)         (None, 128)                0

    dense_2 (Dense)             (None, 10)                 1290

    =================================================================

    Total params: 261,354

    Trainable params: 261,354

    Non-trainable params: 0

    ```


    Each layer is shown in one line in the summary above. The first line is the convolution
    layer with the name of `conv2d` and the type of `Conv2D`, where the name is unique
    in the model. The output size of this layer is (32, 32, 128), because the number
…
