…
    \ activation='relu', return_sequences=True, input_shape=(X_train.shape[1],3)))\n\
    Frac_LSTM.add(Dropout(0.3))\nFrac_LSTM.add(LSTM(units=200, activation='relu',\
    \ return_sequences=True))\nFrac_LSTM.add(Dropout(0.3))\nFrac_LSTM.add(LSTM(units=200,\
    \ activation='relu'))\nFrac_LSTM.add(Dropout(0.3))\nFrac_LSTM.add(Dense(units=1))\n\
    ```\n\nNext, obtain a summary of the Frac_LSTM model as follows:\n\n```\nFrac_LSTM.summary()\n\
    Python output=Fig. 6.35\n```\n\nModel: \"sequential\"\n\n| Layer (type) | Output\
    \ Shape | Param # |\n| :--- | :--- | :--- |\n| lstm (LSTM) | (None, 60, 200) |\
    \ 163200 |\n| dropout (Dropout) | (None, 60, 200) | 0 |\n| lstm_1 (LSTM) | (None,\
    \ 60, 200) | 320800 |\n| dropout_1 (Dropout) | (None, 60, 200) | 0 |\n| lstm_2\
    \ (LSTM) | (None, 200) | 320800 |\n| dropout_2 (Dropout) | (None, 200) | 0 |\n\
    | dense (Dense) | (None, 1) | 201 |\n\nTotal params: 805,001\nTrainable params:\
    \ 805,001\nNon-trainable params: 0\n\nFIGURE 6.35 Frac LSTM summary.\n\nNext,\
    \ compile the model using \"adam\" optimizer and \"mean_squared_error\" as the\
    \ loss function. This will use the mean of the squared errors as the loss function\
    \ to minimize the error.\n\n```\nFrac_LSTM.compile(optimizer='adam', loss='mean_squared_error')\n\
…
    \ = 1\"`，指定输出为1个单元。\n\n```\nFrac_LSTM.add(LSTM(units=200, activation='relu', return_sequences=True,\
    \ input_shape=(X_train.shape[1],3)))\nFrac_LSTM.add(Dropout(0.3))\nFrac_LSTM.add(LSTM(units=200,\
    \ activation='relu', return_sequences=True))\nFrac_LSTM.add(Dropout(0.3))\nFrac_LSTM.add(LSTM(units=200,\
    \ activation='relu'))\nFrac_LSTM.add(Dropout(0.3))\nFrac_LSTM.add(Dense(units=1))\n\
    ```\n\n接下来，获取Frac_LSTM模型的摘要，如下所示：\n\n```\nFrac_LSTM.summary()\nPython output=Fig.\
    \ 6.35\n```\n\nModel: \"sequential\"\n\n| Layer (type) | Output Shape | Param\
    \ # |\n| :--- | :--- | :--- |\n| lstm (LSTM) | (None, 60, 200) | 163200 |\n| dropout\
    \ (Dropout) | (None, 60, 200) | 0 |\n| lstm_1 (LSTM) | (None, 60, 200) | 320800\
    \ |\n| dropout_1 (Dropout) | (None, 60, 200) | 0 |\n| lstm_2 (LSTM) | (None, 200)\
    \ | 320800 |\n| dropout_2 (Dropout) | (None, 200) | 0 |\n| dense (Dense) | (None,\
    \ 1) | 201 |\n\nTotal params: 805,001\nTrainable params: 805,001\nNon-trainable\
    \ params: 0\n\nFIGURE 6.35 Frac LSTM summary.\n\n接下来，使用`\"adam\"`优化器和`\"mean_squared_error\"\
    `作为损失函数来编译模型。这将使用平方误差的均值作为损失函数来最小化误差。\n\n```\nFrac_LSTM.compile(optimizer='adam',\
    \ loss='mean_squared_error')\n```\n\n然后，将`\"Frac_LSTM\"`拟合到定义的X_train和y_train，使用100个epoch或迭代次数，批处理大小为32。epoch数量越高，运行的迭代次数就越多，模型生成所需的时间也越长。请随意更改优化器、epoch数量、批处理大小、dropout百分比、LSTM单元数、激活函数等，以找到模型的最佳超参数。\n\
…
    Frac_LSTM.add(LSTM(units=200, activation=''relu'', return_sequences=True, input_shape=(X_train.shape[1],3)))

    Frac_LSTM.add(Dropout(0.3))

    Frac_LSTM.add(LSTM(units=200, activation=''relu'', return_sequences=True))

    Frac_LSTM.add(Dropout(0.3))

    Frac_LSTM.add(LSTM(units=200, activation=''relu''))

    Frac_LSTM.add(Dropout(0.3))

    Frac_LSTM.add(Dense(units=1))

    ```


    Next, obtain a summary of the Frac_LSTM model as follows:


    ```

    Frac_LSTM.summary()

    Python output=Fig. 6.35

    ```


    Model: "sequential"


    | Layer (type) | Output Shape | Param # |

    | :--- | :--- | :--- |

    | lstm (LSTM) | (None, 60, 200) | 163200 |

    | dropout (Dropout) | (None, 60, 200) | 0 |

    | lstm_1 (LSTM) | (None, 60, 200) | 320800 |

    | dropout_1 (Dropout) | (None, 60, 200) | 0 |

    | lstm_2 (LSTM) | (None, 200) | 320800 |

    | dropout_2 (Dropout) | (None, 200) | 0 |

    | dense (Dense) | (None, 1) | 201 |


    Total params: 805,001

    Trainable params: 805,001

    Non-trainable params: 0


    FIGURE 6.35 Frac LSTM summary.


    Next, compile the model using "adam" optimizer and "mean_squared_error" as the
    loss function. This will use the mean of the squared errors as the loss function
    to minimize the error.


    ```

    Frac_LSTM.compile(optimizer=''adam'', loss=''mean_squared_error'')
…
