…
    WARNING:tensorflow:From C:\\Users\\23188\\PycharmProjects\\workshop\\.venv\\Lib\\\
    site-packages\\keras\\src\\layers\\pooling\\max_pooling2d.py:161: The name tf.nn.max_pool\
    \ is deprecated. Please use tf.nn.max_pool2d instead.\n\nWARNING:tensorflow:From\
    \ C:\\Users\\23188\\PycharmProjects\\workshop\\.venv\\Lib\\site-packages\\keras\\\
    src\\optimizers\\__init__.py:309: The name tf.train.Optimizer is deprecated. Please\
    \ use tf.compat.v1.train.Optimizer instead.\n\nModel: \"sequential\"\n\n| Layer\
    \ (type) | Output Shape | Param # |\n| :--- | :--- | :--- |\n| rescaling_1 (Rescaling)\
    \ | (None, 180, 180, 3) | 0 |\n| conv2d (Conv2D) | (None, 180, 180, 16) | 448\
    \ |\n| max_pooling2d (MaxPooling2D) | (None, 90, 90, 16) | 0 |\n| conv2d_1 (Conv2D)\
    \ | (None, 90, 90, 32) | 4640 |\n| max_pooling2d_1 (MaxPooling2D) | (None, 45,\
    \ 45, 32) | 0 |\n| conv2d_2 (Conv2D) | (None, 45, 45, 64) | 18496 |\n| max_pooling2d_2\
    \ (MaxPooling2D) | (None, 22, 22, 64) | 0 |\n| flatten (Flatten) | (None, 30976)\
    \ | 0 |\n| dense (Dense) | (None, 128) | 3965056 |\n| dense_1 (Dense) | (None,\
    \ 5) | 645 |\n\nTotal params: 3989285 (15.22 MB)\nTrainable params: 3989285 (15.22\
    \ MB)\nNon-trainable params: 0 (0.00 Byte)\n\nEpoch 1/10\nWARNING:tensorflow:From\
    \ C:\\Users\\23188\\PycharmProjects\\workshop\\.venv\\Lib\\site-packages\\keras\\\
    src\\utils\\tf_utils.py:492: The name tf.ragged.RaggedTensorValue is deprecated.\
    \ Please use tf.compat.v1.ragged.RaggedTensorValue instead.\n\nWARNING:tensorflow:From\
…
    workshop\\.venv\\Lib\\site-packages\\keras\\src\\backend.py:873：名称 tf.get_default_graph\
    \ 已弃用。请改用 tf.compat.v1.get_default_graph。\n\n0.0 1.0\n警告：tensorflow：来自 C:\\Users\\\
    23188\\PycharmProjects\\workshop\\.venv\\Lib\\site-packages\\keras\\src\\layers\\\
    pooling\\max_pooling2d.py:161：名称 tf.nn.max_pool 已弃用。请改用 tf.nn.max_pool2d。\n\n\
    警告：tensorflow：来自 C:\\Users\\23188\\PycharmProjects\\workshop\\.venv\\Lib\\site-packages\\\
    keras\\src\\optimizers\\__init__.py:309：名称 tf.train.Optimizer 已弃用。请改用 tf.compat.v1.train.Optimizer。\n\
    \n模型：\"sequential\"\n\n| 层（类型） | 输出形状 | 参数数量 |\n| :--- | :--- | :--- |\n| rescaling_1\
    \ (Rescaling) | (None, 180, 180, 3) | 0 |\n| conv2d (Conv2D) | (None, 180, 180,\
    \ 16) | 448 |\n| max_pooling2d (MaxPooling2D) | (None, 90, 90, 16) | 0 |\n| conv2d_1\
    \ (Conv2D) | (None, 90, 90, 32) | 4640 |\n| max_pooling2d_1 (MaxPooling2D) | (None,\
    \ 45, 45, 32) | 0 |\n| conv2d_2 (Conv2D) | (None, 45, 45, 64) | 18496 |\n| max_pooling2d_2\
    \ (MaxPooling2D) | (None, 22, 22, 64) | 0 |\n| flatten (Flatten) | (None, 30976)\
    \ | 0 |\n| dense (Dense) | (None, 128) | 3965056 |\n| dense_1 (Dense) | (None,\
    \ 5) | 645 |\n\n总参数：3989285 (15.22 MB)\n可训练参数：3989285 (15.22 MB)\n不可训练参数：0 (0.00\
    \ Byte)\n\nEpoch 1/10\n警告：tensorflow：来自 C:\\Users\\23188\\PycharmProjects\\workshop\\\
    .venv\\Lib\\site-packages\\keras\\src\\utils\\tf_utils.py:492：名称 tf.ragged.RaggedTensorValue\
    \ 已弃用。请改用 tf.compat.v1.ragged.RaggedTensorValue。\n\n警告：tensorflow：来自 C:\\Users\\\
    23188\\PycharmProjects\\workshop\\.venv\\Lib\\site-packages\\keras\\src\\engine\\\
…
    WARNING:tensorflow:From C:\Users\23188\PycharmProjects\workshop\.venv\Lib\site-packages\keras\src\layers\pooling\max_pooling2d.py:161:
    The name tf.nn.max_pool is deprecated. Please use tf.nn.max_pool2d instead.

    ```'
  - '[PAGE 392]


    WARNING:tensorflow:From C:\Users\23188\PycharmProjects\workshop\.venv\Lib\site-packages\keras\src\optimizers\__init__.py:309:
    The name tf.train.Optimizer is deprecated. Please use tf.compat.v1.train.Optimizer
    instead.


    Model: "sequential"


    | Layer (type) | Output Shape | Param # |

    | :--- | :--- | :--- |

    | rescaling_1 (Rescaling) | (None, 180, 180, 3) | 0 |

    | conv2d (Conv2D) | (None, 180, 180, 16) | 448 |

    | max_pooling2d (MaxPooling2D) | (None, 90, 90, 16) | 0 |

    | conv2d_1 (Conv2D) | (None, 90, 90, 32) | 4640 |

    | max_pooling2d_1 (MaxPooling2D) | (None, 45, 45, 32) | 0 |

    | conv2d_2 (Conv2D) | (None, 45, 45, 64) | 18496 |

    | max_pooling2d_2 (MaxPooling2D) | (None, 22, 22, 64) | 0 |

    | flatten (Flatten) | (None, 30976) | 0 |

    | dense (Dense) | (None, 128) | 3965056 |

    | dense_1 (Dense) | (None, 5) | 645 |


    Total params: 3989285 (15.22 MB)

    Trainable params: 3989285 (15.22 MB)

    Non-trainable params: 0 (0.00 Byte)


    Epoch 1/10

    WARNING:tensorflow:From C:\Users\23188\PycharmProjects\workshop\.venv\Lib\site-packages\keras\src\utils\tf_utils.py:492:
    The name tf.ragged.RaggedTensorValue is deprecated. Please use tf.compat.v1.ragged.RaggedTensorValue
    instead.


    WARNING:tensorflow:From C:\Users\23188\PycharmProjects\workshop\.venv\Lib\site-packages\keras\src\engine\base_layer_utils.py:384:
…
    Fig. 7.6: Training and validation accuracy versus training and validation loss
    with 15 epochs.


    The Fig. 7.6 shows the Training and validation accuracy versus training and validation
    loss with 15 epochs.

    The same model is being trained on the 15 epochs and have look


    ## 7.6.1 Model: "sequential_2"


    ![](img/c3c5898a15ab3a66ce4ae6d1872b8b51_395_0.png)


    Fig. 7.7: Trained model with 15 epochs.


    The Fig. 7.7 shows the Trained model with 15 epochs.


    | Layer (type) | Output shape | Param # |

    | :--- | :--- | :--- |

    | sequential_1 (Sequential) | (None, 180, 180, 3) | 0 |

    | rescaling_2 (Rescaling) | (None, 180, 180, 3) | 0 |

    | conv2d_3 (Conv2D) | (None, 180, 180, 16) | 448 |

    | max_pooling2d_3 (MaxPooling2D) | (None, 90, 90, 16) | 0 |

    | conv2d_4 (Conv2D) | (None, 90, 90, 32) | 4640 |

    | max_pooling2d_4 (MaxPooling2D) | (None, 45, 45, 32) | 0 |

    | conv2d_5 (Conv2D) | (None, 45, 45, 64) | 18496 |

    | max_pooling2d_5 (MaxPooling2D) | (None, 22, 22, 64) | 0 |

    | dropout (Dropout) | (None, 22, 22, 64) | 0 |

    | flatten_1 (Flatten) | (None, 30976) | 0 |

    | dense_2 (Dense) | (None, 128) | 3965056 |

    | outputs (Dense) | (None, 5) | 645 |


    =================================================================

    Total params: 3989285 (15.22 MB)

    Trainable params: 3989285 (15.22 MB)

    Nontrainable params: 0 (0.00 Byte)

    _________________________________________________________________

    Epoch 1/15

    92/92 [==============================] - 17s 161ms/step - loss: 1.3169 - accuracy:
    0.4343 - val_loss: 1.1176 - val_accuracy: 0.5804
…
