…
    \ rather, its upper-left corner is aligned with the image’s upper-left corner.\
    \ For a 3 × 3 kernel, there’s a 1-pixel-wide border around the edges that doesn’t\
    \ survive the convolution. (For a 5 × 5 kernel, the border that doesn’t survive\
    \ is 2 pixels wide.) The term for this is padding, and if you’d like, you can\
    \ override the default behavior to push the kernel’s center cell right up to the\
    \ edges of the image. In Keras, this is accomplished by including a padding='same'\
    \ parameter in the call to Conv2D.\n\n| Layer (type) | Output Shape | Param #\
    \ |\n| :--- | :--- | :--- |\n| conv2d (Conv2D) | (None, 26, 26, 32) | 320 |\n\
    | max_pooling2d (MaxPooling2D) | (None, 13, 13, 32) | 0 |\n| conv2d_1 (Conv2D)\
    \ | (None, 11, 11, 64) | 18496 |\n| max_pooling2d_1 (MaxPooling2D) | (None, 5,\
    \ 5, 64) | 0 |\n| flatten (Flatten) | (None, 1600) | 0 |\n| dense (Dense) | (None,\
    \ 128) | 204928 |\n| dense_1 (Dense) | (None, 10) | 1290 |\n| **Total params:**\
    \ | **225,034** | |\n| **Trainable params:** | **225,034** | |\n| **Non-trainable\
    \ params:** | **0** | |\n\nFigure 10-8. Output from the summary method\n\nAnother\
    \ takeaway is that each 28 × 28 image exits the first convolution layer as a 3D\
    \ array or *tensor* measuring 26 × 26 × 32: one 26 × 26 feature map for each of\
    \ the 32 kernels. After max pooling, the tensor is reduced to 13 × 13 × 32 and\
…
    \ activation='softmax'))\nmodel.compile(optimizer='adam', loss='sparse_categorical_crossentropy',\n\
    \              metrics=['accuracy'])\nmodel.summary(line_length=80)\n```\n\n图10-8显示了最后一行调用summary的输出。该摘要揭示了此CNN处理图像的许多细节。每个池化层将图像尺寸减半，而每个卷积层将图像的高度和宽度各减少两个像素。为什么是这样？默认情况下，卷积核的中心单元格并不从图像左上角的像素开始；而是其左上角与图像的左上角对齐。对于3×3的卷积核，边缘周围有1像素宽的边界在卷积后无法保留。（对于5×5的卷积核，无法保留的边界宽度为2像素。）这个术语称为填充，如果你愿意，可以覆盖默认行为，将卷积核的中心单元格推到图像的边缘。在Keras中，这可以通过在调用Conv2D时包含`padding='same'`参数来实现。\n\
    \n| 层（类型） | 输出形状 | 参数数量 |\n| :--- | :--- | :--- |\n| conv2d (Conv2D) | (None,\
    \ 26, 26, 32) | 320 |\n| max_pooling2d (MaxPooling2D) | (None, 13, 13, 32) | 0\
    \ |\n| conv2d_1 (Conv2D) | (None, 11, 11, 64) | 18496 |\n| max_pooling2d_1 (MaxPooling2D)\
    \ | (None, 5, 5, 64) | 0 |\n| flatten (Flatten) | (None, 1600) | 0 |\n| dense\
    \ (Dense) | (None, 128) | 204928 |\n| dense_1 (Dense) | (None, 10) | 1290 |\n\
    | **总参数:** | **225,034** | |\n| **可训练参数:** | **225,034** | |\n| **不可训练参数:** |\
    \ **0** | |\n\n图10-8. summary方法的输出\n\n另一个要点是，每张28×28的图像在通过第一个卷积层后，会变成一个尺寸为26×26×32的三维数组或*张量*：每个卷积核对应一个26×26的特征图。经过最大池化后，张量缩减为13×13×32，并输入到第二个卷积层，其中另外64个卷积核从三十二个13×13的特征图中过滤特征，并将它们组合以产生64个新的特征图（一个尺寸为11×11×64的张量）。最后的池化层将其缩减为5×5×64。这些值被展平成一个包含1,600个值的一维张量，并输入到全连接层进行分类。\n\
    \n> **注意**\n\n这里的宏观图景是，CNN将每张包含784个像素值的28×28图像转换为一个包含1,600个浮点数的数组，该数组（希望）比普通像素值能更清晰地区分图像内容。这就是瓶颈层的作用：它们将*整数像素值矩阵*转换为*浮点数张量*，从而更好地表征输入到它们的图像。正如你将在第13章看到的，NLP网络使用*词嵌入*来创建文档中单词的密集向量表示。*密集向量表示*是你在深度学习中会经常遇到的术语。它不过是浮点数数组，比输入数据本身更能表征输入。\n\
…
    \ rather, its upper-left corner is aligned with the image’s upper-left corner.\
    \ For a 3 × 3 kernel, there’s a 1-pixel-wide border around the edges that doesn’t\
    \ survive the convolution. (For a 5 × 5 kernel, the border that doesn’t survive\
    \ is 2 pixels wide.) The term for this is padding, and if you’d like, you can\
    \ override the default behavior to push the kernel’s center cell right up to the\
    \ edges of the image. In Keras, this is accomplished by including a padding='same'\
    \ parameter in the call to Conv2D."
  - '[PAGE 211]


    | Layer (type) | Output Shape | Param # |

    | :--- | :--- | :--- |

    | conv2d (Conv2D) | (None, 26, 26, 32) | 320 |

    | max_pooling2d (MaxPooling2D) | (None, 13, 13, 32) | 0 |

    | conv2d_1 (Conv2D) | (None, 11, 11, 64) | 18496 |

    | max_pooling2d_1 (MaxPooling2D) | (None, 5, 5, 64) | 0 |

    | flatten (Flatten) | (None, 1600) | 0 |

    | dense (Dense) | (None, 128) | 204928 |

    | dense_1 (Dense) | (None, 10) | 1290 |

    | **Total params:** | **225,034** | |

    | **Trainable params:** | **225,034** | |

    | **Non-trainable params:** | **0** | |


    Figure 10-8. Output from the summary method


    Another takeaway is that each 28 × 28 image exits the first convolution layer
    as a 3D array or *tensor* measuring 26 × 26 × 32: one 26 × 26 feature map for
    each of the 32 kernels. After max pooling, the tensor is reduced to 13 × 13 ×
…
